…
17:16:39,517 eyegaze INFO [Arguments]: Namespace(alpha=1.0, attention=True, batch_size=16, brnn_hm=True, cell='lstm', class_names=['Normal', 'CHF', 'pneumonia'], data_path='resources/master_sheet.csv', device=device(type='cuda', index=2), dropout=0.5, emb_dim=64, epochs=20, finetuned=True, freeze=True, gpus='2,3,4,5,6,7', gray_scale=False, h5_path='/data/MIMIC/images', heatmaps_path='/data/MIMIC/eye_gaze/fixation_heatmaps/uncalibrated/temporal_heatmaps', hidden_dim=64, hidden_hm=[128], lambda=0.5, lr=0.001, lvalue=5.0, model_teacher='simplecnn', model_type='temporal', num_layers_hm=1, num_workers=16, omega=1.0, output_dir='resultsFINAL', pretrained=True, resize=224, rseed=42, scheduler=True, test=False, testdir=None, viz=False)
17:16:42,37 eyegaze INFO EyegazeSimple(
  (image_encoder): XRayNet(
    (conv1): Conv2d(3, 64, kernel_size=(7, 7), stride=(2, 2), padding=(3, 3), bias=False)
    (batch1): BatchNorm2d(64, eps=1e-05, momentum=0.1, affine=True, track_running_stats=True)
    (pool): MaxPool2d(kernel_size=3, stride=2, padding=1, dilation=1, ceil_mode=False)
    (dense_layers): ModuleList(
      (0): Linear(in_features=200704, out_features=128, bias=True)
      (1): BatchNorm1d(128, eps=1e-05, momentum=0.01, affine=True, track_running_stats=True)
    )
    (dropout1): Dropout(p=0.5, inplace=True)
    (final_dense): Linear(in_features=128, out_features=64, bias=True)
  )
  (heatmap_cnn): XRayNet(
    (conv1): Conv2d(3, 64, kernel_size=(7, 7), stride=(2, 2), padding=(3, 3), bias=False)
    (batch1): BatchNorm2d(64, eps=1e-05, momentum=0.1, affine=True, track_running_stats=True)
    (pool): MaxPool2d(kernel_size=3, stride=2, padding=1, dilation=1, ceil_mode=False)
    (dense_layers): ModuleList(
      (0): Linear(in_features=200704, out_features=128, bias=True)
      (1): BatchNorm1d(128, eps=1e-05, momentum=0.01, affine=True, track_running_stats=True)
    )
    (dropout1): Dropout(p=0.5, inplace=True)
    (final_dense): Linear(in_features=128, out_features=64, bias=True)
  )
  (heatmap_rnn): EncoderRNN(
    (rnn): LSTM(64, 64, batch_first=True, bidirectional=True)
    (attention): Attention()
    (dense): Linear(in_features=128, out_features=64, bias=True)
  )
  (classifier): Classifier(
    (fc): Linear(in_features=128, out_features=3, bias=True)
  )
)
17:16:42,38 eyegaze INFO Number of parameters:51491779
Using 6 GPUs!
17:16:42,39 eyegaze INFO  MODEL FILE --> resultsFINAL/temporal_gray_scaleFalse_finetunedTrue_freezeTrue_batch_size16_epochs20_lr0.001_schedulerTrue_resize224_dropout0.5_hidden_dim64_emb_dim64_hidden_hm[128]_num_layers_hm1_celllstm_brnn_hmTrue_attentionTrue_lambda0.5_lvalue5.0_2020-09-2017:16:39
…
